name: "FaceCascade_calibration12"
layer {
  name: "data_c12"
  top: "data_c12"
  top: "label_c12"
  type: "ImageData" 
  include {
    phase: TRAIN
  }
  transform_param {
    mirror: false  # WARNING: never use mirroring for calibration
    crop_size: 12
    mean_file: "/home/fanglin/caffe/FaceDetection/models/deploy/12net_mean_const128.binaryproto"
  }
  image_data_param {
    source: "/media/ssd/data/aflw/data/faces/calibration12_train.txt"
    shuffle: true
    new_height:12
    new_width:12
    batch_size: 256
  }
}
layer {
  name: "data_c12"
  top: "data_c12"
  top: "label_c12"
  type: "ImageData"
  include {
    phase: TEST
  }
  transform_param {
    mirror: false
    crop_size: 12
    mean_file: "/home/fanglin/caffe/FaceDetection/models/deploy/12net_mean_const128.binaryproto"
  }
  image_data_param {
    source: "/media/ssd/data/aflw/data/faces/calibration12_val.txt"
    new_height:12
    new_width:12
    batch_size: 50
  }
}
layer {
  name: "conv1_c12"
  type: "Convolution"
  bottom: "data_c12"
  top: "conv1_c12"
  # learning rate and decay multipliers for the filters
  param {
    lr_mult: 1
    decay_mult: 1
  }
  # learning rate and decay multipliers for the biases
  param {
    lr_mult: 2
    decay_mult: 0
  }
  convolution_param {
    num_output: 16 
    kernel_size: 3
    stride: 1
    weight_filler {
      type: "xavier"
    }
    bias_filler {
      type: "constant"
    }
  }
}
layer {
  name: "pool1_c12"
  type: "Pooling"
  bottom: "conv1_c12"
  top: "pool1_c12"
  pooling_param {
    pool: MAX
    kernel_size: 3
    stride: 2
  }
}
layer {
  name: "relu1_c12"
  type: "ReLU"
  bottom: "pool1_c12"
  top: "pool1_c12"
}
#layer {
#    name: "norm1"
#    type: "LRN"
#    bottom: "pool1"
#    top: "norm1"
#    lrn_param{
#        local_size: 5
#        alpha: 0.0001
#        beta: 0.75
#    }
#}
layer {
  name: "fc1_c12"
  type: "InnerProduct"
  bottom: "pool1_c12"
  top: "fc1_c12"
  param {
    lr_mult: 1
    decay_mult: 1
  }
  param {
    lr_mult: 2
    decay_mult: 0
  }
  inner_product_param {
    num_output: 128 
    weight_filler {
      type: "xavier"
    }
    bias_filler {
      type: "constant"
    }
  }
}
layer {
  name: "relu2_c12"
  type: "ReLU"
  bottom: "fc1_c12"
  top: "fc1_c12"
}
#layer {
#  name: "drop1"
#  type: "Dropout"
#  bottom: "fc1"
#  top: "fc1"
#  dropout_param {
#      dropout_ratio: 0.5
#  }
#}
layer {
  name: "fc2_c12"
  type: "InnerProduct"
  bottom: "fc1_c12"
  top: "fc2_c12"
  param {
    lr_mult: 1
    decay_mult: 1
  }
  param {
    lr_mult: 2
    decay_mult: 0
  }
  inner_product_param {
    num_output: 45
    weight_filler {
      type: "xavier"
    }
    bias_filler {
      type: "constant"
    }
  }
}
layer {
  name: "accuracy_c12"
  type: "Accuracy"
  bottom: "fc2_c12"
  bottom: "label_c12"
  top: "accuracy_c12"
  include {
    phase: TEST
  }
}
layer {
  name: "loss_c12"
  type: "SoftmaxWithLoss"
  bottom: "fc2_c12"
  bottom: "label_c12"
  top: "loss_c12"
}
