name: "FaceCascade_calibration48"
layer {
  name: "data_c48"
  top: "data_c48"
  top: "label_c48"
  type: "ImageData" 
  include {
    phase: TRAIN
  }
  transform_param {
    mirror: false  # WARNING: never use mirroring for calibration
    crop_size: 48
  }
  image_data_param {
    source: "/media/ssd/data/aflw/data/faces/calibration48_train.txt"
    shuffle: true
    new_height:48
    new_width:48
    batch_size: 256
  }
}
layer {
  name: "data_c48"
  top: "data_c48"
  top: "label_c48"
  type: "ImageData"
  include {
    phase: TEST
  }
  transform_param {
    mirror: false
    crop_size: 48
  }
  image_data_param {
    source: "/media/ssd/data/aflw/data/faces/calibration48_val.txt"
    new_height:48
    new_width:48
    batch_size: 50
  }
}
layer {
  name: "conv1_c48"
  type: "Convolution"
  bottom: "data_c48"
  top: "conv1_c48"
  # learning rate and decay multipliers for the filters
  param {
    lr_mult: 1
    decay_mult: 1
  }
  # learning rate and decay multipliers for the biases
  param {
    lr_mult: 2
    decay_mult: 0
  }
  convolution_param {
    num_output: 64
    kernel_size: 5
    stride: 1
    weight_filler {
      type: "xavier"
    }
    bias_filler {
      type: "constant"
    }
  }
}
layer {
  name: "pool1_c48"
  type: "Pooling"
  bottom: "conv1_c48"
  top: "pool1_c48"
  pooling_param {
    pool: MAX
    kernel_size: 3
    stride: 2
  }
}
layer {
  name: "relu1_c48"
  type: "ReLU"
  bottom: "pool1_c48"
  top: "pool1_c48"
}
layer {
    name: "norm1"
    type: "LRN"
    bottom: "pool1"
    top: "norm1"
    lrn_param{
        local_size: 9
        norm_region: WITHIN_CHANNEL
    }
}
layer {
  name: "conv2_c48"
  type: "Convolution"
  bottom: "norm1_c48"
  top: "conv2_c48"
  # learning rate and decay multipliers for the filters
  param {
    lr_mult: 1
    decay_mult: 1
  }
  # learning rate and decay multipliers for the biases
  param {
    lr_mult: 2
    decay_mult: 0
  }
  convolution_param {
    num_output: 64
    kernel_size: 5
    stride: 1
    weight_filler {
      type: "xavier"
    }
    bias_filler {
      type: "constant"
    }
  }
}
layer {
    name: "norm2_c48"
    type: "LRN"
    bottom: "conv2_c48"
    top: "norm2_c48"
    lrn_param{
        local_size: 9
        norm_region: WITHIN_CHANNEL
    }
}
layer {
  name: "fc1_c48"
  type: "InnerProduct"
  bottom: "norm2_c48"
  top: "fc1_c48"
  param {
    lr_mult: 1
    decay_mult: 1
  }
  param {
    lr_mult: 2
    decay_mult: 0
  }
  inner_product_param {
    num_output: 256
    weight_filler {
      type: "xavier"
    }
    bias_filler {
      type: "constant"
    }
  }
}
layer {
  name: "relu2_c48"
  type: "ReLU"
  bottom: "fc1_c48"
  top: "fc1_c48"
}
#layer {
#  name: "drop1"
#  type: "Dropout"
#  bottom: "fc1"
#  top: "fc1"
#  dropout_param {
#      dropout_ratio: 0.5
#  }
#}
layer {
  name: "fc2_c48"
  type: "InnerProduct"
  bottom: "fc1_c48"
  top: "fc2_c48"
  param {
    lr_mult: 1
    decay_mult: 1
  }
  param {
    lr_mult: 2
    decay_mult: 0
  }
  inner_product_param {
    num_output: 45
    weight_filler {
      type: "xavier"
    }
    bias_filler {
      type: "constant"
    }
  }
}
layer {
  name: "accuracy_c48"
  type: "Accuracy"
  bottom: "fc2_c48"
  bottom: "label_c48"
  top: "accuracy_c48"
  include {
    phase: TEST
  }
}
layer {
  name: "loss_c48"
  type: "SoftmaxWithLoss"
  bottom: "fc2_c48"
  bottom: "label_c48"
  top: "loss_c48"
}
