name: "FaceCascade_detection48"
layer {
  name: "data_48"
  top: "data_48"
  top: "label_48"
  type: "ImageData" 
  include {
    phase: TRAIN
  }
  transform_param {
    mirror: true
    crop_size:48  
    mean_file: "/home/fanglin/caffe/FaceDetection/models/48net_mean.binrayproto"
  }
  image_data_param {
    source: "/media/ssd/data/aflw/data/train_detection48.txt"
    shuffle: true #cannot shuffle to ensure 48-net and 24-net are dealing with same invividual images
    new_height:48
    new_width:48
    batch_size: 256
  }
}
layer {
  name: "data_48"
  top: "data_48"
  top: "label_48"
  type: "ImageData"
  include {
    phase: TEST
  }
  transform_param {
    mirror: false
    crop_size: 48
    mean_file: "/home/fanglin/caffe/FaceDetection/models/48net_mean.binrayproto"
  }
  image_data_param {
    source: "/media/ssd/data/aflw/data/faces/detection48_val.txt"
    #source: "/media/ssd/data/aflw/data/train_detection48.txt"
    new_height:48
    new_width:48
    batch_size: 50
  }
}
layer {
  name: "conv1_48"
  type: "Convolution"
  bottom: "data_48"
  top: "conv1_48"
  # learning rate and decay multipliers for the filters
  param {
    lr_mult: 1
    decay_mult: 1
  }
  # learning rate and decay multipliers for the biases
  param {
    lr_mult: 2
    decay_mult: 0
  }
  convolution_param {
    num_output: 64
    kernel_size: 5
    stride: 1
    weight_filler {
      type: "xavier"
    }
    bias_filler {
      type: "constant"
    }
  }
}
layer {
  name: "pool1_48"
  type: "Pooling"
  bottom: "conv1_48"
  top: "pool1_48"
  pooling_param {
    pool: MAX
    kernel_size: 3
    stride: 2
  }
}
layer {
  name: "relu1_48"
  type: "ReLU"
  bottom: "pool1_48"
  top: "pool1_48"
}
layer {
    name: "norm1_48"
    type: "LRN"
    bottom: "pool1_48"
    top: "norm1_48"
    lrn_param{
        local_size: 9
        norm_region: WITHIN_CHANNEL
    }
}
layer {
  name: "conv2_48"
  type: "Convolution"
  bottom: "norm1_48"
  top: "conv2_48"
  # learning rate and decay multipliers for the filters
  param {
    lr_mult: 1
    decay_mult: 1
  }
  # learning rate and decay multipliers for the biases
  param {
    lr_mult: 2
    decay_mult: 0
  }
  convolution_param {
    num_output: 64
    kernel_size: 5
    stride: 1
    weight_filler {
      type: "xavier"
    }
    bias_filler {
      type: "constant"
    }
  }
}
layer {
    name: "norm2_48"
    type: "LRN"
    bottom: "conv2_48"
    top: "norm2_48"
    lrn_param{
        local_size: 9
        norm_region: WITHIN_CHANNEL
    }
}
layer {
  name: "pool2_48"
  type: "Pooling"
  bottom: "norm2_48"
  top: "pool2_48"
  pooling_param {
    pool: MAX
    kernel_size: 3
    stride: 2
  }
}
layer {
  name: "relu2_48"
  type: "ReLU"
  bottom: "pool2_48"
  top: "pool2_48"
}
layer {
  name: "fc1_48"
  type: "InnerProduct"
  bottom: "pool2_48"
  top: "fc1_48"
  param {
    lr_mult: 1
    decay_mult: 1
  }
  param {
    lr_mult: 2
    decay_mult: 0
  }
  inner_product_param {
    num_output: 256 
    weight_filler {
      type: "xavier"
    }
    bias_filler {
      type: "constant"
    }
  }
}
layer {
  name: "relu3_48"
  type: "ReLU"
  bottom: "fc1_48"
  top: "fc1_48"
}
layer {
  name: "fc2_48"
  type: "InnerProduct"
  bottom: "fc1_48"
  top: "fc2_48"
  param {
    lr_mult: 1
    decay_mult: 1
  }
  param {
    lr_mult: 2
    decay_mult: 0
  }
  inner_product_param {
    num_output: 2
    weight_filler {
      type: "xavier"
    }
    bias_filler {
      type: "constant"
    }
  }
}
layer {
  name: "accuracy_48"
  type: "Accuracy"
  bottom: "fc2_48"
  bottom: "label_48"
  top: "accuracy_48"
  include {
    phase: TEST
  }
}
layer {
  name: "loss_48"
  type: "SoftmaxWithLoss"
  bottom: "fc2_48"
  bottom: "label_48"
  top: "loss_48"
}
