name: "FaceCascade_detection12"
layer {
  name: "data_d12"
  top: "data_d12"
  top: "label_d12"
  type: "ImageData" 
  include {
    phase: TRAIN
  }
  transform_param {
    mirror: true #NOTE: we have flipped faces during sample generation
    crop_size: 12
    mean_file: "/home/fanglin/caffe/FaceDetection/models/deploy_3rd/12net_mean_const128.binaryproto"
    #scale: 0.00390625
  }
  image_data_param {
    source: "/media/ssd/data/aflw/data/train_detection12_noflip.txt"
    shuffle: true
    new_height:12
    new_width:12
    batch_size: 256
  }
}
layer {
  name: "data_d12"
  top: "data_d12"
  top: "label_d12"
  type: "ImageData"
  include {
    phase: TEST
  }
  transform_param {
    mirror: false
    crop_size: 12
    mean_file: "/home/fanglin/caffe/FaceDetection/models/deploy_3rd/12net_mean_const128.binaryproto"
    #scale: 0.00390625
  }
  image_data_param {
    source: "/media/ssd/data/aflw/data/faces/detection12_val_noflip.txt"
    new_height:12
    new_width:12
    batch_size: 50
  }
}
layer {
  name: "conv1_d12"
  type: "Convolution"
  bottom: "data_d12"
  top: "conv1_d12"
  # learning rate and decay multipliers for the filters
  param {
    lr_mult: 1
    decay_mult: 1
  }
  # learning rate and decay multipliers for the biases
  param {
    lr_mult: 2
    decay_mult: 0
  }
  convolution_param {
    num_output: 16
    kernel_size: 3
    stride: 1
    weight_filler {
      type: "xavier"
    }
    bias_filler {
      type: "constant"
    }
  }
}
layer {
  name: "pool1_d12"
  type: "Pooling"
  bottom: "conv1_d12"
  top: "pool1_d12"
  pooling_param {
    pool: MAX
    kernel_size: 3
    stride: 2
  }
}
layer {
  name: "relu1_d12"
  type: "ReLU"
  bottom: "pool1_d12"
  top: "pool1_d12"
}
#layer {
#    name: "norm1"
#    type: "LRN"
#    bottom: "pool1"
#    top: "norm1"
#    lrn_param{
#        local_size: 5
#        alpha: 0.0001
#        beta: 0.75
#    }
#}
layer {
  name: "fc1_d12"
  type: "InnerProduct"
  bottom: "pool1_d12"
  top: "fc1_d12"
  param {
    lr_mult: 1
    decay_mult: 1
  }
  param {
    lr_mult: 2
    decay_mult: 0
  }
  inner_product_param {
    num_output: 16
    weight_filler {
      type: "xavier"
    }
    bias_filler {
      type: "constant"
    }
  }
}
layer {
  name: "relu2_d12"
  type: "ReLU"
  bottom: "fc1_d12"
  top: "fc1_d12"
}
layer {
  name: "drop1_d12"
  type: "Dropout"
  bottom: "fc1_d12"
  top: "fc1_d12"
  dropout_param {
      dropout_ratio: 0.5
  }
}
layer {
  name: "fc2_d12"
  type: "InnerProduct"
  bottom: "fc1_d12"
  top: "fc2_d12"
  param {
    lr_mult: 1
    decay_mult: 1
  }
  param {
    lr_mult: 2
    decay_mult: 0
  }
  inner_product_param {
    num_output: 2
    weight_filler {
      type: "xavier"
    }
    bias_filler {
      type: "constant"
    }
  }
}
layer {
  name: "accuracy_d12"
  type: "Accuracy"
  bottom: "fc2_d12"
  bottom: "label_d12"
  top: "accuracy_d12"
  include {
    phase: TEST
  }
}
layer {
  name: "loss_d12"
  type: "SoftmaxWithLoss"
  bottom: "fc2_d12"
  bottom: "label_d12"
  top: "loss_d12"
}
