name: "FaceCascade_calibration24"
layer {
  name: "data_c24"
  top: "data_c24"
  top: "label_c24"
  type: "ImageData" 
  include {
    phase: TRAIN
  }
  transform_param {
    mirror: false  # WARNING: never use mirroring for calibration
    crop_size: 24
    mean_file: "/home/fanglin/caffe/FaceDetection/models/deploy/24net_mean_const0.binaryproto"   
    #scale: 0.00390625
  }
  image_data_param {
    source: "/media/ssd/data/aflw/data/faces/calibration24_train.txt"
    shuffle: true
    new_height:24
    new_width:24
    batch_size: 256
  }
}
layer {
  name: "data_c24"
  top: "data_c24"
  top: "label_c24"
  type: "ImageData"
  include {
    phase: TEST
  }
  transform_param {
    mirror: false
    crop_size: 24
    mean_file: "/home/fanglin/caffe/FaceDetection/models/deploy/24net_mean_const0.binaryproto"   
    #scale: 0.00390625
  }
  image_data_param {
    source: "/media/ssd/data/aflw/data/faces/calibration24_val.txt"
    new_height:24
    new_width:24
    batch_size: 50
  }
}
layer {
  name: "conv1_c24"
  type: "Convolution"
  bottom: "data_c24"
  top: "conv1_c24"
  # learning rate and decay multipliers for the filters
  param {
    lr_mult: 1
    decay_mult: 1
  }
  # learning rate and decay multipliers for the biases
  param {
    lr_mult: 2
    decay_mult: 0
  }
  convolution_param {
    num_output: 32
    kernel_size: 5
    stride: 1
    weight_filler {
      type: "xavier"
    }
    bias_filler {
      type: "constant"
    }
  }
}
layer {
  name: "pool1_c24"
  type: "Pooling"
  bottom: "conv1_c24"
  top: "pool1_c24"
  pooling_param {
    pool: MAX
    kernel_size: 3
    stride: 2
  }
}
layer {
  name: "relu1_c24"
  type: "ReLU"
  bottom: "pool1_c24"
  top: "pool1_c24"
}
layer {
  name: "fc1_c24"
  type: "InnerProduct"
  bottom: "pool1_c24"
  top: "fc1_c24"
  param {
    lr_mult: 1
    decay_mult: 1
  }
  param {
    lr_mult: 2
    decay_mult: 0
  }
  inner_product_param {
    num_output: 64
    weight_filler {
      type: "xavier"
    }
    bias_filler {
      type: "constant"
    }
  }
}
layer {
  name: "relu2_c24"
  type: "ReLU"
  bottom: "fc1_c24"
  top: "fc1_c24"
}
#layer {
#  name: "drop1"
#  type: "Dropout"
#  bottom: "fc1"
#  top: "fc1"
#  dropout_param {
#      dropout_ratio: 0.5
#  }
#}
layer {
  name: "fc2_c24"
  type: "InnerProduct"
  bottom: "fc1_c24"
  top: "fc2_c24"
  param {
    lr_mult: 1
    decay_mult: 1
  }
  param {
    lr_mult: 2
    decay_mult: 0
  }
  inner_product_param {
    num_output: 45
    weight_filler {
      type: "xavier"
    }
    bias_filler {
      type: "constant"
    }
  }
}
layer {
  name: "accuracy_c24"
  type: "Accuracy"
  bottom: "fc2_c24"
  bottom: "label_c24"
  top: "accuracy_c24"
  include {
    phase: TEST
  }
}
layer {
  name: "loss_c24"
  type: "SoftmaxWithLoss"
  bottom: "fc2_c24"
  bottom: "label_c24"
  top: "loss_c24"
}
